Edge/sine_model_quantized.tflite (tflite, 3168 bytes, 5 tensors)

arith.constant f4 [1, 16]
0.32756695 -0.41681954 -0.31238112 0.5396288 1.6676934 0.38211304 -0.13416493 0.13049768
1.5190513 -0.40838277 -0.1735135 -0.20303646 0.7683568 0.3351727 -0.56764406 -0.8987562
00000000: dbb6 a73e 5f69 d5be 6bf0 9fbe 1d25 0a3f
00000010: fa76 d53f 52a4 c33e 8862 09be 2fa1 053e
00000020: 4670 c23f 8c17 d1be 86ad 31be cae8 4fbe
00000030: 08b3 443f c29b ab3e 1f51 11bf e314 66bf

arith.constant1 f4 [16, 16]
0.15595168 -0.4196207 -0.33771077 0.3747351 -0.40991676 0.20102353 -0.33471227 -0.36848128
-0.21160387 -0.39028227 0.2443172 -0.57122564 0.27268037 -0.37719342 0.30430192 0.25584313
-0.023162046 0.28866503 0.43227825 -0.18791245 -0.12481147 0.08946399 0.073370226 -0.038410198
0.068280965 0.20936444 -0.4023718 -0.39749843 -0.14416018 0.019880593 -0.3947337 0.011193313
-0.2929011 -0.04092717 0.1347113 -0.20346002 -0.37800786 -0.22059892 -0.2847834 0.18600771
-0.36733633 -0.107556105 0.259653 -0.21515083 0.040709943 -0.3744925 0.23443088 -0.41460624
0.08000043 -0.16418488 0.31036934 0.36947903 0.22206819 -0.271374 0.24346696 0.39879474
0.19556418 -0.2465748 0.17215082 0.37584525 0.05882318 -0.22841437 0.27421653 -0.05041507
-0.0492678 -0.46582663 0.37930992 0.16444442 -0.29747364 -0.09432597 0.4136824 0.036274634
-0.13319153 -0.21254633 0.19297042 -0.18849835 -1.012127 -0.41066977 0.14699134 0.32241857
0.19816604 0.13738391 -0.16888872 -0.23716938 -0.268677 0.39837328 0.2849206 0.08018467
-0.34921688 -0.36133695 0.39834538 0.016716748 0.37102142 -0.23116206 -0.40202066 -0.43257847
0.3982326 -0.13171443 0.112593025 0.3257014 -0.029562632 -0.24277028 0.33739367 0.037923615
0.3395867 0.3783603 -0.37567365 0.27933437 0.051692013 -0.37242308 0.23143162 0.37981495
-0.37317327 -0.296225 -0.40326974 0.3389211 -0.037989397 0.19375607 -0.08096037 0.057289843
-0.26366156 -0.24540253 0.1678386 -0.2904036 0.22225481 -0.19030395 0.2021339 0.037919447
-0.43214977 0.44526908 -0.31580216 -0.051202267 -0.02270718 -0.3653918 -0.031243578 -0.1012299
0.24343017 0.38223353 -0.28718954 0.3920454 0.64141375 -0.09056166 -0.06923855 -0.017488118
-0.121763855 -0.13123712 -0.4314026 0.3576853 0.12770215 0.07340273 -0.22243273 -0.22686104
-0.039834082 -0.07219711 0.1606786 0.014127225 -0.28096545 0.3633599 -0.32287243 0.02073428
0.17520414 0.25138405 -0.39809546 0.09584072 -0.098692454 0.28772444 0.23854816 0.15021482
0.2278097 0.2597609 -0.011659324 0.1475249 -0.41990408 -0.09724334 0.13828114 0.013957771
0.09301221 -0.22075996 -0.42983037 0.10381189 -0.08183954 -0.059184674 -0.2607792 0.4170863
-0.3225784 -0.235289 -0.36084688 0.21944973 -0.0151683 -0.40848163 0.3420805 -0.09101589
0.28548232 -0.20780109 -0.3668896 -0.033361226 -0.054940995 -0.42931807 0.21118198 0.1859329
0.28065768 -0.17179477 -0.36207426 0.1284446 0.5497987 -0.27098146 0.15240194 -0.45299223
-0.1307829 0.16206917 -0.17327583 0.011829466 0.17704043 -0.018608507 -0.06972308 0.3678969
0.15505192 -0.09959209 0.39872977 -0.14636514 -0.012309401 0.03668666 0.050136916 0.027199287
0.3992389 0.27880654 -0.057644635 0.19010386 0.25473896 0.1889373 0.1933416 0.037117954
-0.33178127 -0.2270031 0.01496014 0.21401851 -0.33876052 0.1565508 -0.17942531 -0.19907744
-0.87854147 -0.22889733 -0.22300427 0.049131095 -0.13836946 -0.63510865 0.5558333 -0.68298537
0.13083294 -0.100917995 0.037269324 -0.4806399 -0.58090943 0.18083629 -0.052284118 0.46062636
00000000: ccb1 1f3e 86d8 d6be 6de8 acbe 47dd bf3e
00000010: 9ce0 d1be 1dd9 4d3e 685f abbe 94a9 bcbe
00000020: afae 58be 14d3 c7be 4a2e 7a3e d83b 12bf
00000030: c39c 8b3e 7f1f c1be 76cd 9b3e dffd 823e
00000040: 55be bdbc e7cb 933e 9353 dd3e 1f6c 40be
00000050: 289d ffbd e538 b73d 2143 963d 0354 1dbd
00000060: e4d6 8b3d a263 563e ad03 cebe ea84 cbbe
00000070: ba9e 13be a0dc a23c 891a cabe 2864 373c
00000080: 22f7 95be 40a3 27bd c2f1 093e d357 50be
00000090: 3f8a c1be afe4 61be 21cf 91be ce78 3e3e
000000a0: 8213 bcbe 6046 dcbd 3df1 843e 8050 5cbe
000000b0: 78bf 263d 7bbd bfbe a60e 703e 4547 d4be
000000c0: 44d7 a33d 1520 28be bbe8 9e3e 5b2c bd3e
000000d0: d865 633e 88f1 8abe 674f 793e d32e cc3e
000000e0: fa41 483e 1b7e 7cbe 4e48 303e ca6e c03e
000000f0: 93f0 703d 75e5 69be 1c66 8c3e 0880 4ebd
00000100: 08cd 49bd d480 eebe e934 c23e 1e64 283e
00000110: 774e 98be f92d c1bd 2ece d33e b694 143d
00000120: 5c63 08be bfa5 59be 0a9a 453e b605 41be
00000130: 618d 81bf 4f43 d2be e684 163e 0c14 a53e
00000140: 0aec 4a3e 5eae 0c3e 2af1 2cbe 88dc 72be
00000150: 0890 89be 95f7 cb3e 1de1 913e dc37 a43d
00000160: 8ecc b2be 2801 b9be edf3 cb3e 90f1 883c
00000170: 85f6 bd3e bfb5 6cbe a7d5 cdbe ed7a ddbe
00000180: 25e5 cb3e 26e0 06be 2c97 e63d 55c2 a63e
00000190: 552d f2bc c698 78be ddbe ac3e cb55 1b3d
000001a0: 4fde ad3e 71b8 c13e 4c58 c0be ea04 8f3e
000001b0: 01bb 533d 3dae bebe 69fc 6c3e 1b77 c23e
000001c0: 9110 bfbe ceaa 97be 5f79 cebe 1187 ad3e
000001d0: c59a 1bbd fe67 463e 8dce a5bd c1a8 6a3d
000001e0: a6fe 86be cd4a 7bbe e2dd 2b3e c8af 94be
000001f0: c496 633e 0adf 42be 30fc 4e3e 6c51 1b3d
00000200: bc42 ddbe 4ffa e33e d2b0 a1be 78b9 51bd
00000210: 6804 babc a214 bbbe 88f2 ffbc 9f51 cfbd
00000220: c245 793e 1db4 c33e 820a 93be 2dba c83e
00000230: b133 243f 6478 b9bd f1cc 8dbd 3e43 8fbc
00000240: 545f f9bd 0663 06be cde0 dcbe 8722 b73e
00000250: 5ac4 023e 2c54 963d 68c5 63be 434e 68be
00000260: 1029 23bd 14dc 93bd ee88 243e e075 673c
00000270: b4da 8fbe 4f0a ba3e 894f a5be f0da a93c
00000280: b768 333e 69b5 803e 2bd3 cbbe 2448 c43d
00000290: 451f cabd 9e50 933e f845 743e ead1 193e
000002a0: f246 693e 61ff 843e c006 3fbc c410 173e
000002b0: abfd d6be 8427 c7bd 9299 0d3e 22af 643c
000002c0: 307d be3d e60e 62be ba12 dcbe 549b d43d
000002d0: 7d9b a7bd a16b 72bd da84 85be 568c d53e
000002e0: ff28 a5be 9aef 70be ecc0 b8be 6eb7 603e
000002f0: 7684 78bc 8124 d1be 2d25 af3e 8a66 babd
00000300: bd2a 923e cfc9 54be f4d8 bbbe c8a5 08bd
00000310: cf09 61bd 94cf dbbe 1740 583e 3265 3e3e
00000320: 5db2 8f3e f8ea 2fbe cc61 b9be fb86 033e
00000330: 9cbf 0c3f 15be 8abe 410f 1c3e 99ee e7be
00000340: f4eb 05be 76f5 253e 386f 31be 60d0 413c
00000350: 164a 353e de70 98bc f9ca 8ebd fc5c bc3e
00000360: eec5 1e3e f0f6 cbbd 4f26 cc3e bee0 15be
00000370: 5fad 49bc c044 163d 5e5c 4d3d 0ad1 de3c
00000380: 0b69 cc3e bbbf 8e3e c81c 6cbd 96aa 423e
00000390: 256d 823e c878 413e 57fb 453e ff08 183d
000003a0: 3cdf a9be 8073 68be 601b 753c ab27 5b3e
000003b0: 0572 adbe da4e 203e 45bb 37be f5da 4bbe
000003c0: 18e8 60bf 1064 6abe 3b5b 64be b03d 493d
000003d0: b9b0 0dbe 7b96 22bf 174b 0e3f 21d8 2ebf
000003e0: 12f9 053e 18ae cebd b8a7 183d 6f16 f6be
000003f0: 7bb6 14bf 262d 393e df27 56bd 38d7 eb3e

sequential_1/dense_1_2/BiasAdd/ReadVariableOp f4 [16]
-0.02912923 0.03366605 0.0 -0.16578403 0.44402573 0.0 0.22060896 -0.07320232
-0.32903296 0.0 0.054013547 0.051730886 -0.3001219 -0.24732018 0.09253587 0.5414113
00000000: 6ca0 eebc 69e5 093d 0000 0000 4ac3 29be
00000010: 5757 e33e 0000 0000 51e7 613e 19eb 95bd
00000020: 0277 a8be 0000 0000 4f3d 5d3d c4e3 533d
00000030: 94a9 99be 8041 7dbe 7283 bd3d ee99 0a3f

sequential_1/dense_1/BiasAdd/ReadVariableOp f4 [16]
0.12917748 -0.574709 0.0 0.0 -0.3013484 0.09974943 0.38608155 -0.0037129708
0.0 0.0 0.0 -0.59164834 -0.8821111 0.0 0.014449471 0.4489538
00000000: 1a47 043e 2120 13bf 0000 0000 0000 0000
00000010: 564a 9abe 6e49 cc3d 7bac c53e 5055 73bb
00000020: 0000 0000 0000 0000 0000 0000 4476 17bf
00000030: 08d2 61bf 0000 0000 79bd 6c3c 46dd e53e

sequential_1/dense_1/MatMul f4 [16, 1]
0.41728267 0.48971042 -0.21694744 -0.01117003 0.3020843 0.25656918 0.3078487 0.21329348
-0.5630581 -0.3999395 -0.3309869 0.5205357 0.36520258 -0.049638927 0.5159054 0.38343793
00000000: 13a6 d53e 53bb fa3e 7827 5ebe 8002 37bc
00000010: cbaa 9a3e 095d 833e 589e 9d3e 9b69 5a3e
00000020: 9324 10bf dfc4 ccbe 1d77 a9be d441 053f
00000030: d5fb ba3e 3052 4bbd 6012 043f fa51 c43e
